contrastive_data/persona_probe/persona_vectors.pt (torch, 900257 bytes, 54 tensors)

qwen_raw f4 [4096]
-0.08901205 0.047961563 0.30535156 0.06972306 0.11441366 0.121068925 0.079069175 -0.0047253817
-0.117933236 -0.079820834 0.026214097 0.08764457 -0.0064008255 -0.015282486 0.11483127 -0.23498487
-0.052878864 0.17545187 0.18729648 -0.1268201 0.07237376 0.030617284 0.077456996 0.036660634
0.17720509 -0.05569932 0.2985209 0.052773107 -0.0723341 0.013119162 -0.004741285 -0.024047282
-0.003739648 0.34993923 0.055372447 -0.053810254 0.08639519 -0.10058464 -0.10433089 -0.1601703
-0.22676831 0.014785946 0.033729795 0.024614828 0.065760225 -0.04936383 0.06777759 -0.16250919
-0.089086436 0.008038648 -0.0028052477 0.48218498 -0.11572411 -0.051714372 -0.023304865 -0.056641713
0.07497395 0.0027885644 -0.15122592 -0.05140368 0.18712246 -0.084291115 -0.17888024 0.02569429
0.04912766 -0.0025696456 -0.14367484 0.04130951 0.27594197 -0.09218357 0.16515312 0.14910714
0.06759383 0.14459343 -0.029013952 -0.009703323 0.096659586 0.024637723 -0.034829494 0.16457328
0.06647461 -0.1335355 -0.17777401 0.029874442 0.047629632 0.023057684 0.13340575 -0.19162098
0.06948209 0.0715882 -0.10516781 0.06931009 0.19092043 -0.09027039 -0.073800646 0.26816013
-0.018038355 -0.035047732 1.0161873 0.115713075 0.14139257 -0.012767435 0.03089075 -0.24887091
-0.061744094 -0.22687595 -0.21820003 0.11595304 -0.10407726 -0.09552536 -0.0857635 0.10861427
0.08871307 0.042288594 -0.07084093 0.25500703 0.1016752 -0.0762012 0.100403614 0.005070246
-0.04710698 0.024634134 -0.20079027 -0.24037242 0.16283886 0.06311909 -0.15219213 -0.09757212
0.17676443 -0.1777754 -0.1020275 0.08053816 -0.013363125 -0.1173775 0.023426956 -0.099991955
-0.03136554 0.048055053 -0.19608583 0.16135515 -0.124162294 -0.11316238 0.068461284 0.024999458
-0.099011734 0.09756146 0.08425128 0.02497637 -0.00969928 0.15684372 0.12878427 0.033211753
0.002130508 0.21614085 -0.030078175 0.033019714 0.22692138 -0.062636435 -0.061812796 -0.045936037
0.1324594 -0.108178034 -0.0649403 -0.052265387 0.16065042 -0.04518332 -0.0040261154 -0.27032715
-0.32000777 -0.17940794 0.012343783 0.3826105 0.24130543 0.0358185 0.008997115 0.15229397
-0.055279817 0.058160737 0.05541535 -0.005754024 -0.23566675 -0.10690178 -0.12416372 -0.1659512
-0.056278083 -0.08741991 0.18454139 -0.20073645 -0.010761358 0.17467591 0.16417463 0.08534023
-0.10608129 0.0077596717 0.031724647 -0.14784269 -0.838926 -0.019128492 0.21750265 0.1999969
-0.3981317 -0.015849128 -0.119031146 -0.19507107 -0.00037943508 0.12485758 -0.003222883 -0.37397864
-0.47725707 0.15720922 0.14832965 -0.030357607 0.06646174 -0.18085715 -0.0037347395 0.020027315
0.042375624 -0.050941907 -0.1375164 -0.15782401 0.037310954 0.1355337 -0.046454728 0.052434623
-0.011005967 0.17415239 0.024493676 -0.12693769 0.14507426 -0.2168763 0.011815982 -0.050925415
0.12200859 -0.5972075 -0.033101406 0.04760349 0.15129946 -0.15362105 0.059692133 -0.08631771
0.19465022 0.14365272 -0.20353532 -0.01961433 0.111470334 -0.050698366 0.013604397 0.04757438
-0.033347186 0.17634608 0.077131785 0.1736796 -0.08924884 -0.115899846 0.12422124 0.050131977
00000000: f34b b6bd 5873 443d 0a57 9c3e f7ca 8e3d
00000010: b551 ea3d fcf2 f73d 05ef a13d 60d7 9abb
00000020: fb86 f1bd 1b79 a3bd f2be d63c ff7e b33d
00000030: 04be d1bb 6463 7abc a82c eb3d e09f 70be
00000040: 8297 58bd a8a9 333e a6ca 3f3e 21dd 01be
00000050: b238 943d 19d1 fa3c c6a1 9e3d 7629 163d
00000060: 4075 353e f824 64bd bbd7 983e 9d28 583d
00000070: e723 94bd c1f1 563c c85c 9bbb cefe c4bc
00000080: e214 75bb 3c2b b33e 38ce 623d 2468 5cbd
00000090: f6ef b03d 52ff cdbd 6fab d5bd af03 24be
000000a0: f435 68be c140 723c 4128 0a3d 09a5 c93c
000000b0: 4cad 863d ba31 4abd face 8a3d cf68 26be
000000c0: f372 b6bd 89b4 033c 3fd8 37bb f3e0 f63e
000000d0: c300 edbd 73d2 53bd d8e9 bebc 2401 68bd
000000e0: f18b 993d 59c0 363b f8da 1abe aa8c 52bd
000000f0: 089d 3f3e d2a0 acbd 622c 37be d57c d23c
00000100: 163a 493d 8067 28bb 7f1f 13be 2934 293d
00000110: 4448 8d3e bdca bcbd e61d 293e 8baf 183e
00000120: a26e 8a3d 4d10 143e abae edbc b0fa 1ebc
00000130: 76f5 c53d 0dd5 c93c 5fa9 0ebd e685 283e
00000140: d723 883d 88bd 08be 640a 36be 3fbb f43c
00000150: 4a17 433d 78e3 bc3c 849b 083e 4a38 44be
00000160: a04c 8e3d d69c 923d 3962 d7bd 73f2 8d3d
00000170: a580 433e afdf b8bd cb24 97bd 494c 893e
00000180: 2cc5 93bc 368e 0fbd 6d12 823f fafa ec3d
00000190: 37c9 103e 812e 51bc 990e fd3c 04d8 7ebe
000001a0: 60e7 7cbd 2b52 68be d46f 5fbe ca78 ed3d
000001b0: 7526 d5bd cda2 c3bd c6a4 afbd 2971 de3d
000001c0: 33af b53d ce36 2d3d 0d15 91bd 4890 823e
000001d0: 163b d03d 600f 9cbd 69a0 cd3d 4e24 a63b
000001e0: 40f3 40bd 86cd c93c f79b 4dbe 3024 76be
000001f0: 3bbf 263e 9544 813d 41d8 1bbe e4d3 c7bd
00000200: bc01 353e c10a 36be cbf3 d0bd 31f1 a43d
00000210: 02f1 5abc 9d63 f0bd e3e9 bf3c 95c8 ccbd
00000220: 2779 00bd 60d5 443d b9ca 48be 493a 253e
00000230: cd48 febd aec1 e7bd 6e35 8c3d aacb cc3c
00000240: aac6 cabd 4ece c73d ef8b ac3d 3f9b cc3c
00000250: bbe9 1ebc a49b 203e 06e0 033e 0c09 083d
00000260: fe9f 0b3b 0754 5d3e 8166 f6bc ae3f 073d
00000270: 145e 683e 8847 80bd 6a2f 7dbd 6d27 3cbd
00000280: 70a3 073e 728c ddbd 6cff 84bd 3b14 56bd
00000290: 8b81 243e 2512 39bd 81ed 83bb 5268 8abe
000002a0: 0fd8 a3be b7b6 37be 943d 4a3c 86e5 c33e
000002b0: c518 773e 6bb6 123d a368 133c f3f2 1b3e
000002c0: 176d 62bd f439 6e3d 35fb 623d 408c bcbb
000002d0: a052 71be 52ef dabd 8c49 febd 1def 29be
000002e0: d983 66bd 3609 b3bd 6bf8 3c3e db8d 4dbe
000002f0: 6850 30bc 3ede 323e 651d 283e dcc6 ae3d
00000300: 2641 d9bd d844 fe3b b4f1 013d 1364 17be
00000310: dbc3 56bf 5bb3 9cbc 04b9 5e3e fdcb 4c3e
00000320: ebd7 cbbe 08d6 81bc 9ac6 f3bd b6c0 47be
00000330: eaee c6b9 55b5 ff3d 0137 53bb 217a bfbe
00000340: 0a5b f4be 74fb 203e bae3 173e 84b0 f8bc
00000350: 181d 883d 9e32 39be 88c2 74bb 5310 a43c
00000360: 1092 2d3d 76a8 50bd 19d1 0cbe 9e9c 21be
00000370: 5fd3 183d 59c9 0a3e 5047 3ebd b0c5 563d
00000380: 5f52 34bc 0155 323e f6a6 c83c f4fb 01be
00000390: 598e 143e d214 5ebe d297 413c 2b97 50bd
000003a0: a4df f93d 97e2 18bf 5795 07bd e1fb 423d
000003b0: 3fee 1a3e d64e 1dbe bd7f 743d 57c7 b0bd
000003c0: 6352 473e b319 133e 906b 50be 3bae a0bc
000003d0: 8f4a e43d 17a9 4fbd fae4 5e3c 5add 423d
000003e0: 0f97 08bd 1194 343e 45f7 9d3d 11d9 313e
000003f0: 19c8 b6bd e65c edbd b567 fe3d 3057 4d3d

qwen_weighted f4 [4096]
-0.019051863 0.0050333934 0.2155421 0.01338483 0.031536143 0.0383977 0.016135156 -5.1054463e-05
-0.029307159 -0.013741183 0.0016830789 0.020804156 -0.000102369566 -0.0005717878 0.027972775 -0.09887246
-0.0076784967 0.08099623 0.087034486 -0.034049414 0.013885861 0.0023901775 0.015425405 0.0034272168
0.07453046 -0.008306137 0.12157906 0.007284591 -0.014320207 0.0005152346 -6.51315e-05 -0.001293399
-3.3751574e-05 0.24332885 0.007142066 -0.008015439 0.020802535 -0.025064703 -0.024846675 -0.071398854
-0.11592486 0.00054432655 0.0023872345 0.0016881108 0.011991463 -0.00626616 0.0123651195 -0.058647797
-0.019315675 0.00017840182 -2.1449308e-05 0.366814 -0.025656465 -0.00629595 -0.0007167518 -0.009573945
0.014684965 1.8883418e-05 -0.043325022 -0.0074294684 0.0920329 -0.016712427 -0.086911686 0.0016963893
0.005822625 -1.9093273e-05 -0.05090366 0.0044676024 0.14966197 -0.021945488 0.065646455 0.048359837
0.0107049495 0.052801654 -0.0016450722 -0.00020380627 0.020418203 0.0017519641 -0.003459719 0.06276865
0.0067849755 -0.049917217 -0.083201796 0.002152454 0.0042012217 0.0014193765 0.048770875 -0.060225792
0.014184095 0.012587167 -0.031403 0.01352622 0.09123314 -0.014588297 -0.01419336 0.13114391
-0.00082174083 -0.0032393858 1.1329793 0.037603986 0.050777208 -0.0004453485 0.0021354405 -0.11970813
-0.009882466 -0.14340469 -0.1290201 0.0335259 -0.024246056 -0.026562488 -0.017285846 0.031219566
0.02044813 0.0051194797 -0.012920236 0.14664946 0.027123045 -0.0127259195 0.02504791 6.604827e-05
-0.005837446 0.0011315924 -0.064299375 -0.14754598 0.070268296 0.01040966 -0.054208457 -0.025571095
0.06810661 -0.08657295 -0.020270063 0.015712338 -0.00043478055 -0.033201683 0.001056773 -0.023030072
-0.0025122538 0.0057223495 -0.04288225 0.04965623 -0.044759843 -0.031896215 0.008968489 0.0017521284
-0.028601227 0.023827206 0.015137192 0.0016706737 -0.00024300475 0.05888363 0.037101876 0.0027597123
9.506499e-06 0.13122123 -0.0021945701 0.0023597903 0.14169292 -0.008346075 -0.010269403 -0.005528051
0.045576833 -0.031721555 -0.0076958835 -0.0070713605 0.0666644 -0.005558878 -4.191789e-05 -0.15966246
-0.19547036 -0.084525585 0.00031990116 0.21888755 0.12923418 0.003310447 0.00021703354 0.055234753
-0.007371767 0.008183243 0.0053454563 -8.459918e-05 -0.16156042 -0.027818691 -0.03927503 -0.072388515
-0.009709855 -0.019316038 0.09190665 -0.09015303 -0.00029169826 0.06808312 0.07791401 0.01606997
-0.021293662 0.00015895908 0.0027175967 -0.062066767 -0.8366979 -0.0009712157 0.1368931 0.09921087
-0.2803304 -0.0005881481 -0.039280143 -0.083272316 -3.34549e-07 0.04137615 -2.5500241e-05 -0.25164983
-0.43392685 0.06792578 0.051611867 -0.00250816 0.012666227 -0.08171345 -3.9450824e-05 0.0009345617
0.0042805313 -0.008004722 -0.04420356 -0.05225747 0.0034683307 0.030950643 -0.0042620483 0.0063033965
-0.00025823162 0.0602745 0.00157264 -0.035099402 0.059193194 -0.06376868 0.00034280433 -0.007074163
0.022285342 -0.7917721 -0.0017792331 0.004793565 0.0656071 -0.06293185 0.0096176 -0.018168984
0.08224251 0.05530799 -0.10710511 -0.00042142032 0.03432708 -0.006797628 0.0004578115 0.0060317363
-0.0021867566 0.082669824 0.014387022 0.06837962 -0.02010118 -0.03474135 0.04274031 0.007073249
00000000: a712 9cbc 2aef a43b 11b7 5c3e 0c4c 5b3c
00000010: 0b2c 013d e846 1d3d e02d 843c 5023 56b8
00000020: 9115 f0bc b322 61bc c29a dc3a 7a6d aa3c
00000030: 3eaf d6b8 08e4 15ba 2927 e53c a57d cabd
00000040: e69b fbbb 5ae1 a53d 233f b23d 6677 0bbd
00000050: 8681 633c 86a4 1c3b d7ba 7c3c 289b 603b
00000060: 6da3 983d 7716 08bc 71fe f83d 94b3 ee3b
00000070: 4d9f 6abc cf10 073a 3597 88b8 4587 a9ba
00000080: 7a90 0db8 332b 793e fe07 ea3b 3053 03bc
00000090: 146a aa3c 7e54 cdbc 418b cbbc 9039 92bd
000000a0: 036a edbd 23b1 0e3a 2673 1c3b 9943 dd3a
000000b0: d777 443c 5c54 cdbb 1297 4a3c ac38 70bd
000000c0: e83b 9ebc 6011 3b39 0aee b3b7 0bcf bb3e
000000d0: 822d d2bc 424e cebb 66e4 3bba 09dc 1cbc
000000e0: 3599 703c d567 9e37 9475 31bd e672 f3bb
000000f0: bf7b bc3d 80e8 88bc c1fe b1bd 6159 de3a
00000100: b8cb be3b 7e2a a0b7 5b80 50bd f764 923b
00000110: fd40 193e 06c7 b3bc a671 863d f714 463d
00000120: d063 2f3c 8c46 583d 779f d7ba d4b4 55b9
00000130: 1344 a73c 29a2 e53a 74bc 62bb da8c 803d
00000140: 8054 de3b ff75 4cbd b465 aabd 3010 0d3b
00000150: 67aa 893b 5f0a ba3a f8c3 473d 52af 76bd
00000160: 6864 683c 683a 4e3c 6fa0 00bd 149d 5d3c
00000170: 71d8 ba3d c103 6fbc 448b 68bc 974a 063e
00000180: 186a 57ba e04b 54bb 7705 913f a306 1a3d
00000190: c3fb 4f3d aa7d e9b9 bff2 0b3b 8929 f5bd
000001a0: 11ea 21bc aed8 12be d81d 04be 7452 093d
000001b0: aa9f c6bc 9399 d9bc 0c9b 8dbc 2dc0 ff3c
000001c0: d682 a73c 4fc1 a73b 66af 53bc 472b 163e
000001d0: 2631 de3c 6080 50bc 4631 cd3c 6583 8a38
000001e0: 0c48 bfbb f151 943a 64af 83bd 4b16 17be
000001f0: d3e8 8f3d 478d 2a3c b009 5ebd 797a d1bc
00000200: 7a7b 8b3d 294d b1bd 670d a6bc 29b7 803c
00000210: 42f3 e3b9 7dfe 07bd 6b83 8a3a 90a9 bcbc
00000220: a0a4 24bb 8c82 bb3b 4ca5 2fbd 5564 4b3d
00000230: 1956 37bd 9ba5 02bd 92f0 123c aca7 e53a
00000240: 1f4d eabc 4631 c33c fc01 783c 82fa da3a
00000250: 17cf 7eb9 f62f 713d 23f8 173d 4adc 343b
00000260: 1a7e 1f37 dc5e 063e c7d2 0fbb b6a6 1a3b
00000270: f317 113e fabd 08bc 0041 28bc a724 b5bb
00000280: c6ae 3a3d 76ee 01bd c02d fcbb dfb6 e7bb
00000290: 5887 883d 4027 b6bb fed0 2fb8 8e7e 23be
000002a0: 6229 48be c01b adbd 68b8 a739 0f24 603e
000002b0: f755 043e 16f4 583b 7f93 6339 d63d 623d
000002c0: dd8e f1bb 0213 063c f028 af3b d76a b1b8
000002d0: 1870 25be 06e4 e3bc dbde 20bd 6e40 94bd
000002e0: 1516 1fbc ab3c 9ebc 8e39 bc3d 27a2 b8bd
000002f0: 14ef 98b9 2a6f 8b3d 6191 9f3d 2ba5 833c
00000300: 0c70 aebc 41ae 2639 b519 323b b939 7ebd
00000310: d531 56bf 2f99 7eba b42d 0c3e 122f cb3d
00000320: 7787 8fbe f32d 1aba 37e4 20bd ad8a aabd
00000330: 109c b3b4 0a7a 293d 5ae9 d5b7 3fd8 80be
00000340: a92b debe ac1c 8b3d f766 533d f15f 24bb
00000350: 0286 4f3c 6259 a7bd 0078 25b8 60fd 743a
00000360: b343 8c3b 3d26 03bc cb0e 35bd ee0b 56bd
00000370: ef4c 633b 348c fd3c a7a8 8bbb b98c ce3b
00000380: 4363 87b9 65e2 763d 0b21 ce3a 64c4 0fbd
00000390: 9074 723d 2799 82bd 6bba b339 61ce e7bb
000003a0: c08f b63c 94b1 4abf 2835 e9ba 5613 9d3b
000003b0: 045d 863d 6ae2 80bd 2393 1d3c 1fd7 94bc
000003c0: c36e a83d a28a 623d ed59 dbbd 14f2 dcb9
000003d0: 8d9a 0c3d a3be debb 6b06 f039 dfa5 c53b
000003e0: b04f 0fbb cc4e a93d 8bb7 6b3c 9d0a 8c3d
000003f0: 3bab a4bc f24c 0ebd 7710 2f3d b7c6 e73b

skippy_raw f4 [4096]
0.08901205 -0.047961563 -0.30535156 -0.06972306 -0.11441366 -0.121068925 -0.079069175 0.0047253817
0.117933236 0.079820834 -0.026214097 -0.08764457 0.0064008255 0.015282486 -0.11483127 0.23498487
0.052878864 -0.17545187 -0.18729648 0.1268201 -0.07237376 -0.030617284 -0.077456996 -0.036660634
-0.17720509 0.05569932 -0.2985209 -0.052773107 0.0723341 -0.013119162 0.004741285 0.024047282
0.003739648 -0.34993923 -0.055372447 0.053810254 -0.08639519 0.10058464 0.10433089 0.1601703
0.22676831 -0.014785946 -0.033729795 -0.024614828 -0.065760225 0.04936383 -0.06777759 0.16250919
0.089086436 -0.008038648 0.0028052477 -0.48218498 0.11572411 0.051714372 0.023304865 0.056641713
-0.07497395 -0.0027885644 0.15122592 0.05140368 -0.18712246 0.084291115 0.17888024 -0.02569429
-0.04912766 0.0025696456 0.14367484 -0.04130951 -0.27594197 0.09218357 -0.16515312 -0.14910714
-0.06759383 -0.14459343 0.029013952 0.009703323 -0.096659586 -0.024637723 0.034829494 -0.16457328
-0.06647461 0.1335355 0.17777401 -0.029874442 -0.047629632 -0.023057684 -0.13340575 0.19162098
-0.06948209 -0.0715882 0.10516781 -0.06931009 -0.19092043 0.09027039 0.073800646 -0.26816013
0.018038355 0.035047732 -1.0161873 -0.115713075 -0.14139257 0.012767435 -0.03089075 0.24887091
0.061744094 0.22687595 0.21820003 -0.11595304 0.10407726 0.09552536 0.0857635 -0.10861427
-0.08871307 -0.042288594 0.07084093 -0.25500703 -0.1016752 0.0762012 -0.100403614 -0.005070246
0.04710698 -0.024634134 0.20079027 0.24037242 -0.16283886 -0.06311909 0.15219213 0.09757212
-0.17676443 0.1777754 0.1020275 -0.08053816 0.013363125 0.1173775 -0.023426956 0.099991955
0.03136554 -0.048055053 0.19608583 -0.16135515 0.124162294 0.11316238 -0.068461284 -0.024999458
0.099011734 -0.09756146 -0.08425128 -0.02497637 0.00969928 -0.15684372 -0.12878427 -0.033211753
-0.002130508 -0.21614085 0.030078175 -0.033019714 -0.22692138 0.062636435 0.061812796 0.045936037
-0.1324594 0.108178034 0.0649403 0.052265387 -0.16065042 0.04518332 0.0040261154 0.27032715
0.32000777 0.17940794 -0.012343783 -0.3826105 -0.24130543 -0.0358185 -0.008997115 -0.15229397
0.055279817 -0.058160737 -0.05541535 0.005754024 0.23566675 0.10690178 0.12416372 0.1659512
0.056278083 0.08741991 -0.18454139 0.20073645 0.010761358 -0.17467591 -0.16417463 -0.08534023
0.10608129 -0.0077596717 -0.031724647 0.14784269 0.838926 0.019128492 -0.21750265 -0.1999969
0.3981317 0.015849128 0.119031146 0.19507107 0.00037943508 -0.12485758 0.003222883 0.37397864
0.47725707 -0.15720922 -0.14832965 0.030357607 -0.06646174 0.18085715 0.0037347395 -0.020027315
-0.042375624 0.050941907 0.1375164 0.15782401 -0.037310954 -0.1355337 0.046454728 -0.052434623
0.011005967 -0.17415239 -0.024493676 0.12693769 -0.14507426 0.2168763 -0.011815982 0.050925415
-0.12200859 0.5972075 0.033101406 -0.04760349 -0.15129946 0.15362105 -0.059692133 0.08631771
-0.19465022 -0.14365272 0.20353532 0.01961433 -0.111470334 0.050698366 -0.013604397 -0.04757438
0.033347186 -0.17634608 -0.077131785 -0.1736796 0.08924884 0.115899846 -0.12422124 -0.050131977
00000000: f34b b63d 5873 44bd 0a57 9cbe f7ca 8ebd
00000010: b551 eabd fcf2 f7bd 05ef a1bd 60d7 9a3b
00000020: fb86 f13d 1b79 a33d f2be d6bc ff7e b3bd
00000030: 04be d13b 6463 7a3c a82c ebbd e09f 703e
00000040: 8297 583d a8a9 33be a6ca 3fbe 21dd 013e
00000050: b238 94bd 19d1 fabc c6a1 9ebd 7629 16bd
00000060: 4075 35be f824 643d bbd7 98be 9d28 58bd
00000070: e723 943d c1f1 56bc c85c 9b3b cefe c43c
00000080: e214 753b 3c2b b3be 38ce 62bd 2468 5c3d
00000090: f6ef b0bd 52ff cd3d 6fab d53d af03 243e
000000a0: f435 683e c140 72bc 4128 0abd 09a5 c9bc
000000b0: 4cad 86bd ba31 4a3d face 8abd cf68 263e
000000c0: f372 b63d 89b4 03bc 3fd8 373b f3e0 f6be
000000d0: c300 ed3d 73d2 533d d8e9 be3c 2401 683d
000000e0: f18b 99bd 59c0 36bb f8da 1a3e aa8c 523d
000000f0: 089d 3fbe d2a0 ac3d 622c 373e d57c d2bc
00000100: 163a 49bd 8067 283b 7f1f 133e 2934 29bd
00000110: 4448 8dbe bdca bc3d e61d 29be 8baf 18be
00000120: a26e 8abd 4d10 14be abae ed3c b0fa 1e3c
00000130: 76f5 c5bd 0dd5 c9bc 5fa9 0e3d e685 28be
00000140: d723 88bd 88bd 083e 640a 363e 3fbb f4bc
00000150: 4a17 43bd 78e3 bcbc 849b 08be 4a38 443e
00000160: a04c 8ebd d69c 92bd 3962 d73d 73f2 8dbd
00000170: a580 43be afdf b83d cb24 973d 494c 89be
00000180: 2cc5 933c 368e 0f3d 6d12 82bf fafa ecbd
00000190: 37c9 10be 812e 513c 990e fdbc 04d8 7e3e
000001a0: 60e7 7c3d 2b52 683e d46f 5f3e ca78 edbd
000001b0: 7526 d53d cda2 c33d c6a4 af3d 2971 debd
000001c0: 33af b5bd ce36 2dbd 0d15 913d 4890 82be
000001d0: 163b d0bd 600f 9c3d 69a0 cdbd 4e24 a6bb
000001e0: 40f3 403d 86cd c9bc f79b 4d3e 3024 763e
000001f0: 3bbf 26be 9544 81bd 41d8 1b3e e4d3 c73d
00000200: bc01 35be c10a 363e cbf3 d03d 31f1 a4bd
00000210: 02f1 5a3c 9d63 f03d e3e9 bfbc 95c8 cc3d
00000220: 2779 003d 60d5 44bd b9ca 483e 493a 25be
00000230: cd48 fe3d aec1 e73d 6e35 8cbd aacb ccbc
00000240: aac6 ca3d 4ece c7bd ef8b acbd 3f9b ccbc
00000250: bbe9 1e3c a49b 20be 06e0 03be 0c09 08bd
00000260: fe9f 0bbb 0754 5dbe 8166 f63c ae3f 07bd
00000270: 145e 68be 8847 803d 6a2f 7d3d 6d27 3c3d
00000280: 70a3 07be 728c dd3d 6cff 843d 3b14 563d
00000290: 8b81 24be 2512 393d 81ed 833b 5268 8a3e
000002a0: 0fd8 a33e b7b6 373e 943d 4abc 86e5 c3be
000002b0: c518 77be 6bb6 12bd a368 13bc f3f2 1bbe
000002c0: 176d 623d f439 6ebd 35fb 62bd 408c bc3b
000002d0: a052 713e 52ef da3d 8c49 fe3d 1def 293e
000002e0: d983 663d 3609 b33d 6bf8 3cbe db8d 4d3e
000002f0: 6850 303c 3ede 32be 651d 28be dcc6 aebd
00000300: 2641 d93d d844 febb b4f1 01bd 1364 173e
00000310: dbc3 563f 5bb3 9c3c 04b9 5ebe fdcb 4cbe
00000320: ebd7 cb3e 08d6 813c 9ac6 f33d b6c0 473e
00000330: eaee c639 55b5 ffbd 0137 533b 217a bf3e
00000340: 0a5b f43e 74fb 20be bae3 17be 84b0 f83c
00000350: 181d 88bd 9e32 393e 88c2 743b 5310 a4bc
00000360: 1092 2dbd 76a8 503d 19d1 0c3e 9e9c 213e
00000370: 5fd3 18bd 59c9 0abe 5047 3e3d b0c5 56bd
00000380: 5f52 343c 0155 32be f6a6 c8bc f4fb 013e
00000390: 598e 14be d214 5e3e d297 41bc 2b97 503d
000003a0: a4df f9bd 97e2 183f 5795 073d e1fb 42bd
000003b0: 3fee 1abe d64e 1d3e bd7f 74bd 57c7 b03d
000003c0: 6352 47be b319 13be 906b 503e 3bae a03c
000003d0: 8f4a e4bd 17a9 4f3d fae4 5ebc 5add 42bd
000003e0: 0f97 083d 1194 34be 45f7 9dbd 11d9 31be
000003f0: 19c8 b63d e65c ed3d b567 febd 3057 4dbd

qwen_raw f4 [4096]
-0.22019482 -0.1441996 0.31158912 0.05848345 0.16830885 -0.10292528 0.10096446 -0.03633813
-0.05093973 -0.117244065 0.08573451 -0.014208237 -0.20377484 0.10606101 0.11760968 -0.21146941
-0.004498573 0.116416834 0.19584516 -0.11506457 0.0969821 0.0009296532 0.05051638 0.049776033
0.10551668 -0.037333596 0.33898225 -0.013957713 -0.28084016 -0.018633397 0.026134266 -0.15444921
0.025840111 0.28509882 0.022919178 -0.020901976 0.0691761 -0.0780168 0.14025792 -0.023520933
-0.28208822 0.092049494 0.043385424 0.09737257 -0.01331048 0.028165294 0.028147923 -0.021390172
-0.04319438 -0.00020178927 0.15175292 0.40724352 -0.12643966 -0.17975797 -0.13059092 -0.15896498
0.021009745 -0.06863616 -0.21060744 0.017084053 0.0372084 -0.09714448 0.1117706 -0.032135837
-0.06228683 0.053628366 -0.16799808 0.09314015 0.29153338 -0.051843714 0.20385064 0.056369286
-0.0037404972 0.04285401 -0.095560215 -0.029084222 0.028293379 -0.015326264 -0.016160037 0.10904464
-0.017362965 -0.24292184 -0.09116675 0.027644008 0.06355803 0.019751942 -0.02182134 -0.25263068
0.09135763 0.046304215 -0.003374599 0.06738535 0.0395637 -0.15183395 -0.14525363 0.32103023
-0.061140567 0.026552401 1.0706515 0.12288904 0.076363415 0.04314186 -0.044298057 -0.3168784
-0.11745053 -0.19187464 -0.10671565 -0.024873294 -0.027629478 -0.07374428 -0.026145082 0.19299915
0.038854346 -0.05141485 0.068732515 0.19832376 0.105618514 0.054869987 0.0054266304 0.08255746
-0.044853494 -0.071625546 -0.10624816 -0.00596918 0.16891259 -0.012799862 -0.21084064 -0.036174655
0.2281992 -0.065549366 0.036015026 0.06441722 -0.11638793 0.04825395 0.09011722 -0.15644693
-0.07848212 0.020142797 -0.26785672 0.37029463 0.0033177112 -0.16461955 0.13608705 0.057029817
-0.12149756 0.051449485 0.15795872 -0.12840955 -0.029567726 0.11122436 0.05308843 0.02577422
-0.073745936 0.122583255 -0.008326867 0.07289901 0.08806499 -0.11266972 -0.014391515 -0.23658411
-0.05141029 0.0037029127 -0.04001136 -0.17621611 0.18104555 -0.03485056 0.032150786 -0.2781788
-0.25883585 -0.30155388 0.05752095 0.34488365 0.1303414 0.049535975 0.018655133 0.1714284
-0.055848476 0.06226658 0.12203178 0.059328295 -0.16570093 -0.13522086 -0.16337307 -0.0992622
0.017180854 -0.073218964 0.18574677 -0.078352325 -0.08528171 0.17645203 0.15700296 0.17040539
0.01670563 -0.04745691 0.14192733 -0.1241702 -0.9331987 -0.0006159657 0.28532034 0.054270905
-0.4652122 -0.090013966 -0.08523067 -0.1791326 -0.004264025 0.05197765 0.006185666 -0.31462765
-0.43886757 0.14768319 0.19936605 0.15856233 -0.0650489 -0.26127258 0.018293222 -0.13204797
0.03134339 -0.10742133 -0.036785573 -0.18062058 0.15061216 0.314041 -0.123714015 0.11385745
0.12915526 0.05935621 0.16753922 -0.27055493 0.0053222543 -0.32437196 -0.21488307 -0.117244005
0.0820518 -0.6585806 -0.06944202 -0.11160149 0.058992367 -0.12988274 0.088981934 -0.0333436
0.08983041 0.15042403 -0.08624871 -0.15959784 -0.034254666 -0.043091368 -0.043671083 0.17148012
0.0031139439 0.11014069 -0.06415259 0.19217125 -0.07710555 0.0808004 0.030149601 0.024185048
00000000: c07a 61be 0fa9 13be 9c88 9f3e 588c 6f3d
00000010: 2859 2c3e 7dca d2bd 74c6 ce3d 4ad7 14bd
00000020: 2ea6 50bd a81d f0bd 9395 af3d aac9 68bc
00000030: 5aaa 50be 8436 d93d 58dd f03d 708b 58be
00000040: c468 93bb f36b ee3d a28b 483e f9a6 ebbd
00000050: 8d9e c63d f8b3 733a 44ea 4e3d f4e1 4b3d
00000060: 2119 d83d 1deb 18bd 158f ad3e e4ae 64bc
00000070: 48ca 8fbe 11a5 98bc 8717 d63c ef27 1ebe
00000080: a4ae d33c 79f8 913e 00c1 bb3c 9f3a abbc
00000090: 33ac 8d3d 46c7 9fbd c69f 0f3e f9ae c0bc
000000a0: de6d 90be 7284 bc3d eab4 313d 456b c73d
000000b0: 3314 5abc e7ba e63c 7996 e63c 713a afbc
000000c0: 97ec 30bd 6597 53b9 1e65 1b3e 3982 d03e
000000d0: 6679 01be 7912 38be a0b9 05be b7c7 22be
000000e0: a11c ac3c 1d91 8cbd 7aa9 57be dbf3 8b3c
000000f0: d667 183d aff3 c6bd fce7 e43d dea0 03bd
00000100: 7a20 7fbd 6ba9 5b3d b007 2cbe 43c0 be3d
00000110: dd43 953e 135a 54bd 39be 503e 7be3 663d
00000120: 2123 75bb b087 2f3d 13b5 c3bd 0942 eebc
00000130: 84c7 e73c 031b 7bbc 0e62 84bc cc52 df3d
00000140: c73c 8ebc 81c0 78be a2b5 babd b075 e23c
00000150: b62a 823d d3ce a13c abc2 b2bc cf58 81be
00000160: b619 bb3d 7da9 3d3d 6028 5dbb 5501 8a3d
00000170: 8c0d 223d 5c7a 1bbe 5ebd 14be 135e a43e
00000180: 886e 7abd 6c84 d93c 1c0b 893f 40ad fb3d
00000190: 6c64 9c3d 85b5 303d e171 35bd e33d a2be
000001a0: e789 f0bd c97a 44be bc8d dabd 14c3 cbbc
000001b0: 3757 e2bc 3e07 97bd 362e d6bc 92a1 453e
000001c0: bc25 1f3d 6198 52bd a2c3 8c3d 6215 4b3e
000001d0: 854e d83d 5abf 603d e0d1 b13b e313 a93d
000001e0: 4cb8 37bd 6ab0 92bd a398 d9bd 1c99 c3bb
000001f0: 6cf7 2c3e 83b6 51bc 9ce6 57be e02b 14bd
00000200: 0dad 693e bf3e 86bd 7e84 133d 2ded 833d
00000210: cc5c eebd efa5 453d 618f b83d a033 20be
00000220: 3cbb a0bd 8202 a53c 8424 89be 4297 bd3e
00000230: f56d 593b 0792 28be 675a 0b3e 1998 693d
00000240: b6d3 f8bd b2bc 523d eebf 213e cb7d 03be
00000250: 0438 f2bc 99c9 e33d 4173 593d 7524 d33c
00000260: 1c08 97bd ee0c fb3d 696d 08bc 134c 953d
00000270: 6b5b b43d 62bf e6bd 64ca 6bbc 1b43 72be
00000280: 9993 52bd 91ac 723b f4e2 23bd ff71 34be
00000290: 0164 393e 76bf 0ebd 8bb0 033d 746d 8ebe
000002a0: 2286 84be 4565 9abe 169b 6b3d 9794 b03e
000002b0: 3778 053e 3ce6 4a3d a6d2 983c ed8a 2f3e
000002c0: 5fc1 64bd 3e0b 7f3d cceb f93d 3a02 733d
000002d0: 81ad 29be 5677 0abe 454b 27be fb49 cbbd
000002e0: ddbe 8c3c d3f3 95bd 6734 3e3e 2f77 a0bd
000002f0: 2da8 aebd d7af 343e 62c5 203e c07e 2e3e
00000300: 3fda 883c 2d62 42bd 6655 113e f24c febd
00000310: 1ce6 6ebf c278 21ba 8215 923e 2b4b 5e3d
00000320: 4b30 eebe 3e59 b8bd 6b8d aebd 896e 37be
00000330: 3cb9 8bbb 84e6 543d 21b1 ca3b e016 a1be
00000340: 40b3 e0be 433a 173e 9d26 4c3e 2a5e 223e
00000350: 5c38 85bd 85c5 85be abdb 953c 9537 07be
00000360: ed61 003d b7ff dbbd 78ac 16bd 9af4 38be
00000370: 133a 1a3e fbc9 a03e c65d fdbd 182e e93d
00000380: 4741 043e 7f1f 733d 678f 2b3e 2d86 8abe
00000390: 4e66 ae3b 1514 a6be 4f0a 5cbe a01d f0bd
000003a0: c60a a83d bd98 28bf 9e37 8ebd 528f e4bd
000003b0: fba1 713d fbff 04be 293c b63d 4c93 08bd
000003c0: 02f9 b73d c208 1a3e 2aa3 b0bd 9e6d 23be
000003d0: 9f4e 0cbd 9380 30bd 73e0 32bd 7c98 2f3e
000003e0: 4f13 4c3b 7191 e13d 6f62 83bd 8ac8 443e
000003f0: 84e9 9dbd ae7a a53d 4cfc f63c b91f c63c

qwen_weighted f4 [4096]
-0.09968953 -0.0520737 0.20385264 0.010048395 0.07912349 -0.02470821 0.026411844 -0.0036744773
-0.007297622 -0.030174607 0.019550648 -0.00050666195 -0.11420854 0.024085555 0.03128236 -0.12167684
-5.977798e-05 0.037440937 0.097633846 -0.026768329 0.023946656 2.5083557e-06 0.006664587 0.006013447
0.025179485 -0.0037851827 0.15111619 -0.0004946069 -0.19997388 -0.001031842 0.0020136582 -0.047691867
0.0015094548 0.15597616 0.0014151952 -0.0012283587 0.0119873965 -0.017176181 0.057424672 -0.001616286
-0.16726802 0.026070567 0.0048806584 0.025235547 -0.0005416466 0.0020133678 0.0024340604 -0.0011487309
-0.0047986703 -1.0810002e-07 0.06109268 0.25128287 -0.027651027 -0.07567176 -0.023043646 -0.07651438
0.0012394827 -0.012172825 -0.08854439 0.0008332569 0.0040776357 -0.025371319 0.0365691 -0.0026941742
-0.010106371 0.008460284 -0.08339616 0.021366991 0.16073318 -0.007560661 0.11270021 0.0077622673
-3.360789e-05 0.0049733147 -0.017080827 -0.0017161068 0.0016873811 -0.00066544785 -0.00070059893 0.03268956
-0.00044604455 -0.16978261 -0.024011469 0.0016001554 0.006828561 0.0010557926 -0.0013599184 -0.095587865
0.025056785 0.0060511054 -3.2166376e-05 0.013195457 0.0045506423 -0.04216656 -0.057149973 0.19358937
-0.011212973 0.0019056684 1.3361211 0.03977813 0.015724726 0.005203712 -0.0043025315 -0.20429684
-0.0411351 -0.11719303 -0.031987373 -0.0015964032 -0.0019461557 -0.015995152 -0.0014800582 0.10889802
0.0044668117 -0.007386426 0.01255407 0.08321286 0.033572804 0.005978723 8.453818e-05 0.019620694
-0.005120293 -0.008644706 -0.01961765 -9.588958e-05 0.08529411 -0.00045856662 -0.10820786 -0.0033742723
0.13554102 -0.012994554 0.0024083557 0.011416181 -0.030772487 0.0058903047 0.016491644 -0.05909929
-0.014551931 0.0010721874 -0.07049111 0.30585137 2.9261153e-05 -0.070027426 0.03392722 0.010100335
-0.0426569 0.0066952133 0.055197038 -0.04395 -0.0022428245 0.03234313 0.007525531 0.002165255
-0.016279073 0.047487285 -0.00017561116 0.012056101 0.023491902 -0.03192586 -0.00054587 -0.15922797
-0.006669356 3.6714348e-05 -0.0030010724 -0.083428256 0.08977997 -0.0036244104 0.0029832118 -0.15279308
-0.11220258 -0.24496695 0.0069831223 0.19863659 0.0387556 0.0061036344 0.0009326633 0.06963764
-0.00899396 0.010653569 0.02435581 0.009697193 -0.07340144 -0.048888553 -0.07105794 -0.030105902
0.0009308083 -0.013886391 0.08774069 -0.013994861 -0.020152144 0.07539096 0.07201832 0.054065756
0.0004902806 -0.005652693 0.052453414 -0.04911565 -0.88892883 -8.235961e-07 0.22473992 0.0076667136
-0.40659264 -0.021530211 -0.02126789 -0.083970025 -5.392191e-05 0.007258785 0.00011062747 -0.17072313
-0.33335656 0.05708664 0.09228078 0.06668878 -0.014142008 -0.16883957 0.0009568181 -0.04398785
0.0026365812 -0.035335943 -0.0031811951 -0.07790058 0.06178648 0.159712 -0.030147774 0.031148605
0.032754295 0.0071860235 0.06569556 -0.17194211 8.4529674e-05 -0.13300624 -0.11362728 -0.038798332
0.011575306 -0.82327443 -0.0074963435 -0.023856087 0.00969424 -0.048353396 0.021050125 -0.0032628723
0.020196203 0.050526187 -0.019325206 -0.027660964 -0.0035697364 -0.004615943 -0.0047274553 0.083563015
2.0667478e-05 0.033479374 -0.010530852 0.09585981 -0.015527775 0.017208027 0.0022453011 0.0014620343
00000000: 062a ccbd 3b4b 55bd bfbe 503e 06a2 243c
00000010: 7f0b a23d df68 cabc a75d d83c 80cf 70bb
00000020: e420 efbb bd30 f7bc ae28 a03c 82d1 04ba
00000030: 2be6 e9bd 124f c53c ef21 003d b531 f9bd
00000040: 1eba 7ab8 ab5b 193d 41f4 c73d 4149 dbbc
00000050: c72b c43c 3955 2836 9c62 da3b 730c c53b
00000060: 3545 ce3c d410 78bb 34be 1a3e 82a8 01ba
00000070: f4c5 4cbe df3e 87ba 94f7 033b 8c58 43bd
00000080: e6d8 c53a 37b8 1f3e 127e b93a e100 a1ba
00000090: c966 443c 10b5 8cbc 2236 6b3d 8fd9 d3ba
000000a0: 4f48 2bbe f191 d53c eeed 9f3b c7ba ce3c
000000b0: 4afd 0dba b5f2 033b c284 1f3b 0391 96ba
000000c0: 2a3e 9dbb 9d24 e8b3 513c 7a3d 26a8 803e
000000d0: 6884 e2bc ccf9 9abd 07c6 bcbc 92b3 9cbd
000000e0: 2376 a23a 8770 47bc c356 b5bd ed6e 5a3a
000000f0: b09d 853b 83d7 cfbc 7bc9 153d be90 30bb
00000100: 3195 25bc 019d 0a3c 9bcb aabd d409 af3c
00000110: 3d97 243e 6cbf f7bb 5ecf e63d 9e5a fe3b
00000120: 32f6 0cb8 30f7 a23b 17ed 8bbc fdee e0ba
00000130: 1d2b dd3a 7371 2eba 66a8 37ba 7de5 053d
00000140: 16db e9b9 7edb 2dbe b3b3 c4bc 4ebc d13a
00000150: 1fc2 df3b 8562 8a3a 4a3f b2ba 92c3 c3bd
00000160: e343 cd3c 5a48 c63b 62ea 06b8 c231 583c
00000170: 8e1d 953b d8b6 2cbd 1716 6abd 4b3c 463e
00000180: 9eb6 37bc 9fc7 f93a 0406 ab3f 64ee 223d
00000190: 24d1 803c e683 aa3b 40fc 8cbb 3133 51be
000001a0: 477d 28bd e602 f0bd 3105 03bd 673e d1ba
000001b0: 2616 ffba 4408 83bc 83fe c1ba ed05 df3d
000001c0: 555e 923b d509 f2bb 96af 4d3c 816b aa3d
000001d0: a383 093d 2ae9 c33b 174a b138 94bb a03c
000001e0: 21c8 a7bb 86a2 0dbc 32b5 a0bc 5418 c9b8
000001f0: aeae ae3d c56b f0b9 159c ddbd e522 5dbb
00000200: 44cb 0a3e 1ce7 54bc 81d5 1d3b ef0a 3b3c
00000210: 9516 fcbc 7503 c13b 7c19 873c 1912 72bd
00000220: 396b 6ebc a488 8c3a a55d 90bd 8d98 9c3e
00000230: d975 f537 8a6a 8fbd 45f7 0a3d e07b 253c
00000240: 00b9 2ebd 8563 db3b 4a16 623d ea04 34bd
00000250: 5afc 12bb 3b7a 043d bb98 f63b f3e6 0d3b
00000260: b15b 85bc 0782 423d 4324 38b9 f486 453c
00000270: 1772 c03c b1c4 02bd b718 0fba a80c 23be
00000280: 9d8a dabb bbfd 1938 a4ad 44bb 6fdc aabd
00000290: 90de b73d 8487 6dbb fd81 433b ca75 1cbe
000002a0: 77ca e5bd 9ed8 7abe add2 e43b 6467 4b3e
000002b0: 31be 1e3d ff00 c83b f97d 743a 2e9e 8e3d
000002c0: 675b 13bc 4f8c 2e3c d685 c73c fae0 1e3c
000002d0: 7f53 96bd 5d3f 48bd d386 91bd a7a0 f6bc
000002e0: 7d01 743a bf83 63bc 64b1 b33d b44a 65bc
000002f0: 1c16 a5bc 9366 9a3d 577e 933d 0e74 5d3d
00000300: 2d86 003a 3a3a b9bb 64d9 563d 7e2d 49bd
00000310: d790 63bf 1815 5db5 3922 663e 0e39 fb3b
00000320: e92c d0be 2060 b0bc 003a aebc 7af8 abbd
00000330: 362a 62b8 1adb ed3b ac00 e838 0bd2 2ebe
00000340: b6ad aabe aed3 693d b5fd bc3d 2194 883d
00000350: e1b3 67bc 48e4 2cbe fad2 7a3a 9b2c 34bd
00000360: 7eca 2c3b 6cbc 10bd 997b 50bb 578a 9fbd
00000370: d213 7d3d 8b8b 233e 77f8 f6bc 5c2b ff3c
00000380: 5e29 063d bc78 eb3b 658b 863d 9811 30be
00000390: 8645 b138 ca32 08be 6bb5 e8bd 00eb 1ebd
000003a0: 5aa6 3d3c 1dc2 52bf e3a3 f5bb d76d c3bc
000003b0: 97d4 1e3c 360e 46bd 5071 ac3c ead5 55bb
000003c0: 8272 a53c 8cf4 4e3d e54f 9ebc 3f99 e2bc
000003d0: 3df2 69bb 5641 97bb c5e8 9abb 1623 ab3d
000003e0: 125f ad37 ab21 093d 9889 2cbc 2652 c43d
000003f0: 3568 7ebc d9f7 8c3c e725 133b bba1 bf3a

skippy_raw f4 [4096]
0.22019482 0.1441996 -0.31158912 -0.05848345 -0.16830885 0.10292528 -0.10096446 0.03633813
0.05093973 0.117244065 -0.08573451 0.014208237 0.20377484 -0.10606101 -0.11760968 0.21146941
0.004498573 -0.116416834 -0.19584516 0.11506457 -0.0969821 -0.0009296532 -0.05051638 -0.049776033
-0.10551668 0.037333596 -0.33898225 0.013957713 0.28084016 0.018633397 -0.026134266 0.15444921
-0.025840111 -0.28509882 -0.022919178 0.020901976 -0.0691761 0.0780168 -0.14025792 0.023520933
0.28208822 -0.092049494 -0.043385424 -0.09737257 0.01331048 -0.028165294 -0.028147923 0.021390172
0.04319438 0.00020178927 -0.15175292 -0.40724352 0.12643966 0.17975797 0.13059092 0.15896498
-0.021009745 0.06863616 0.21060744 -0.017084053 -0.0372084 0.09714448 -0.1117706 0.032135837
0.06228683 -0.053628366 0.16799808 -0.09314015 -0.29153338 0.051843714 -0.20385064 -0.056369286
0.0037404972 -0.04285401 0.095560215 0.029084222 -0.028293379 0.015326264 0.016160037 -0.10904464
0.017362965 0.24292184 0.09116675 -0.027644008 -0.06355803 -0.019751942 0.02182134 0.25263068
-0.09135763 -0.046304215 0.003374599 -0.06738535 -0.0395637 0.15183395 0.14525363 -0.32103023
0.061140567 -0.026552401 -1.0706515 -0.12288904 -0.076363415 -0.04314186 0.044298057 0.3168784
0.11745053 0.19187464 0.10671565 0.024873294 0.027629478 0.07374428 0.026145082 -0.19299915
-0.038854346 0.05141485 -0.068732515 -0.19832376 -0.105618514 -0.054869987 -0.0054266304 -0.08255746
0.044853494 0.071625546 0.10624816 0.00596918 -0.16891259 0.012799862 0.21084064 0.036174655
-0.2281992 0.065549366 -0.036015026 -0.06441722 0.11638793 -0.04825395 -0.09011722 0.15644693
0.07848212 -0.020142797 0.26785672 -0.37029463 -0.0033177112 0.16461955 -0.13608705 -0.057029817
0.12149756 -0.051449485 -0.15795872 0.12840955 0.029567726 -0.11122436 -0.05308843 -0.02577422
0.073745936 -0.122583255 0.008326867 -0.07289901 -0.08806499 0.11266972 0.014391515 0.23658411
0.05141029 -0.0037029127 0.04001136 0.17621611 -0.18104555 0.03485056 -0.032150786 0.2781788
0.25883585 0.30155388 -0.05752095 -0.34488365 -0.1303414 -0.049535975 -0.018655133 -0.1714284
0.055848476 -0.06226658 -0.12203178 -0.059328295 0.16570093 0.13522086 0.16337307 0.0992622
-0.017180854 0.073218964 -0.18574677 0.078352325 0.08528171 -0.17645203 -0.15700296 -0.17040539
-0.01670563 0.04745691 -0.14192733 0.1241702 0.9331987 0.0006159657 -0.28532034 -0.054270905
0.4652122 0.090013966 0.08523067 0.1791326 0.004264025 -0.05197765 -0.006185666 0.31462765
0.43886757 -0.14768319 -0.19936605 -0.15856233 0.0650489 0.26127258 -0.018293222 0.13204797
-0.03134339 0.10742133 0.036785573 0.18062058 -0.15061216 -0.314041 0.123714015 -0.11385745
-0.12915526 -0.05935621 -0.16753922 0.27055493 -0.0053222543 0.32437196 0.21488307 0.117244005
-0.0820518 0.6585806 0.06944202 0.11160149 -0.058992367 0.12988274 -0.088981934 0.0333436
-0.08983041 -0.15042403 0.08624871 0.15959784 0.034254666 0.043091368 0.043671083 -0.17148012
-0.0031139439 -0.11014069 0.06415259 -0.19217125 0.07710555 -0.0808004 -0.030149601 -0.024185048
00000000: c07a 613e 0fa9 133e 9c88 9fbe 588c 6fbd
00000010: 2859 2cbe 7dca d23d 74c6 cebd 4ad7 143d
00000020: 2ea6 503d a81d f03d 9395 afbd aac9 683c
00000030: 5aaa 503e 8436 d9bd 58dd f0bd 708b 583e
00000040: c468 933b f36b eebd a28b 48be f9a6 eb3d
00000050: 8d9e c6bd f8b3 73ba 44ea 4ebd f4e1 4bbd
00000060: 2119 d8bd 1deb 183d 158f adbe e4ae 643c
00000070: 48ca 8f3e 11a5 983c 8717 d6bc ef27 1e3e
00000080: a4ae d3bc 79f8 91be 00c1 bbbc 9f3a ab3c
00000090: 33ac 8dbd 46c7 9f3d c69f 0fbe f9ae c03c
000000a0: de6d 903e 7284 bcbd eab4 31bd 456b c7bd
000000b0: 3314 5a3c e7ba e6bc 7996 e6bc 713a af3c
000000c0: 97ec 303d 6597 5339 1e65 1bbe 3982 d0be
000000d0: 6679 013e 7912 383e a0b9 053e b7c7 223e
000000e0: a11c acbc 1d91 8c3d 7aa9 573e dbf3 8bbc
000000f0: d667 18bd aff3 c63d fce7 e4bd dea0 033d
00000100: 7a20 7f3d 6ba9 5bbd b007 2c3e 43c0 bebd
00000110: dd43 95be 135a 543d 39be 50be 7be3 66bd
00000120: 2123 753b b087 2fbd 13b5 c33d 0942 ee3c
00000130: 84c7 e7bc 031b 7b3c 0e62 843c cc52 dfbd
00000140: c73c 8e3c 81c0 783e a2b5 ba3d b075 e2bc
00000150: b62a 82bd d3ce a1bc abc2 b23c cf58 813e
00000160: b619 bbbd 7da9 3dbd 6028 5d3b 5501 8abd
00000170: 8c0d 22bd 5c7a 1b3e 5ebd 143e 135e a4be
00000180: 886e 7a3d 6c84 d9bc 1c0b 89bf 40ad fbbd
00000190: 6c64 9cbd 85b5 30bd e171 353d e33d a23e
000001a0: e789 f03d c97a 443e bc8d da3d 14c3 cb3c
000001b0: 3757 e23c 3e07 973d 362e d63c 92a1 45be
000001c0: bc25 1fbd 6198 523d a2c3 8cbd 6215 4bbe
000001d0: 854e d8bd 5abf 60bd e0d1 b1bb e313 a9bd
000001e0: 4cb8 373d 6ab0 923d a398 d93d 1c99 c33b
000001f0: 6cf7 2cbe 83b6 513c 9ce6 573e e02b 143d
00000200: 0dad 69be bf3e 863d 7e84 13bd 2ded 83bd
00000210: cc5c ee3d efa5 45bd 618f b8bd a033 203e
00000220: 3cbb a03d 8202 a5bc 8424 893e 4297 bdbe
00000230: f56d 59bb 0792 283e 675a 0bbe 1998 69bd
00000240: b6d3 f83d b2bc 52bd eebf 21be cb7d 033e
00000250: 0438 f23c 99c9 e3bd 4173 59bd 7524 d3bc
00000260: 1c08 973d ee0c fbbd 696d 083c 134c 95bd
00000270: 6b5b b4bd 62bf e63d 64ca 6b3c 1b43 723e
00000280: 9993 523d 91ac 72bb f4e2 233d ff71 343e
00000290: 0164 39be 76bf 0e3d 8bb0 03bd 746d 8e3e
000002a0: 2286 843e 4565 9a3e 169b 6bbd 9794 b0be
000002b0: 3778 05be 3ce6 4abd a6d2 98bc ed8a 2fbe
000002c0: 5fc1 643d 3e0b 7fbd cceb f9bd 3a02 73bd
000002d0: 81ad 293e 5677 0a3e 454b 273e fb49 cb3d
000002e0: ddbe 8cbc d3f3 953d 6734 3ebe 2f77 a03d
000002f0: 2da8 ae3d d7af 34be 62c5 20be c07e 2ebe
00000300: 3fda 88bc 2d62 423d 6655 11be f24c fe3d
00000310: 1ce6 6e3f c278 213a 8215 92be 2b4b 5ebd
00000320: 4b30 ee3e 3e59 b83d 6b8d ae3d 896e 373e
00000330: 3cb9 8b3b 84e6 54bd 21b1 cabb e016 a13e
00000340: 40b3 e03e 433a 17be 9d26 4cbe 2a5e 22be
00000350: 5c38 853d 85c5 853e abdb 95bc 9537 073e
00000360: ed61 00bd b7ff db3d 78ac 163d 9af4 383e
00000370: 133a 1abe fbc9 a0be c65d fd3d 182e e9bd
00000380: 4741 04be 7f1f 73bd 678f 2bbe 2d86 8a3e
00000390: 4e66 aebb 1514 a63e 4f0a 5c3e a01d f03d
000003a0: c60a a8bd bd98 283f 9e37 8e3d 528f e43d
000003b0: fba1 71bd fbff 043e 293c b6bd 4c93 083d
000003c0: 02f9 b7bd c208 1abe 2aa3 b03d 9e6d 233e
000003d0: 9f4e 0c3d 9380 303d 73e0 323d 7c98 2fbe
000003e0: 4f13 4cbb 7191 e1bd 6f62 833d 8ac8 44be
000003f0: 84e9 9d3d ae7a a5bd 4cfc f6bc b91f c6bc

qwen_raw f4 [4096]
-0.06844646 -0.12045891 0.166858 -0.1807754 0.04388954 -0.04421091 0.030269522 0.06878699
-0.11444984 -0.027032612 0.09960862 -0.08707874 -0.20597298 0.057094026 0.19231953 -0.07370128
-0.15953742 0.07157974 0.24644035 -0.1772862 0.20932502 -0.06624688 -0.18110771 0.07059546
-0.09675767 0.0016764032 0.34046623 0.16229585 -0.19373587 0.15817426 0.13920465 -0.1087959
0.08214817 0.17441759 -0.1647592 0.018584292 -0.0047187367 0.067312114 0.027713157 0.020095576
-0.22092672 0.1830415 0.17700873 -0.024579711 -0.07663292 0.12780991 -0.10243947 -0.015697414
0.04970669 0.089729615 0.0037606556 0.42452732 0.056819282 -0.26586336 -0.012538484 -0.08648179
0.14961736 -0.07242587 -0.2476655 0.13957873 0.01341026 -0.14810239 0.1575424 -0.10288524
0.025583848 -0.015028812 0.0010171391 0.021344371 0.25691727 0.048222777 0.32345092 0.0040527657
-0.05702807 -0.05878074 -0.25789267 -0.03383561 0.08209558 -0.15212207 0.05675066 -0.020161463
-0.025928099 -0.17954999 -0.011057311 0.0021790883 0.09344127 0.21100701 -0.04558787 -0.17831129
0.06387584 0.030220564 0.0045484267 0.14976956 -0.0020552971 -0.18224403 -0.027941406 0.28839457
-0.20240992 0.123134315 1.0189376 0.14706409 0.11790247 0.0016951106 -0.02907726 -0.3458034
-0.19735196 -0.20466235 -0.1313423 -0.1887375 -0.09834301 -0.044576913 0.12454798 0.063689016
0.08805261 -0.023900406 -0.06683584 0.049802125 0.06502107 0.069897704 0.10283979 0.25505045
-0.04816676 -0.02063372 -0.04236485 0.085729435 0.16847417 0.062665746 -0.09271496 -0.021922823
0.38570443 -0.12036326 -0.08507067 0.04461477 0.075620435 -0.18662696 0.10016928 -0.23085186
-0.10072956 -0.023069063 -0.2954534 0.2979702 0.18280058 -0.20140937 0.05144137 0.04188862
-0.07479551 0.20522307 0.10857607 -0.15130177 -0.00998139 0.03105357 0.110433415 0.004944318
-0.06677209 0.03066303 -0.043615736 0.14677982 0.17301416 -0.0456392 0.016913084 -0.21433732
-0.13067488 0.043962955 -0.021521952 -0.08266032 0.12552997 0.085310854 0.02426796 -0.40839362
-0.27781746 -0.24015471 0.06817114 0.32140657 0.07633432 0.17751685 0.005912571 0.10452531
-0.062855795 0.11806241 0.09295866 -0.027393524 -0.16936933 0.048912473 -0.24096057 -0.10921166
0.15262428 -0.04765802 0.30036786 -0.015809795 -0.036792014 0.24663751 0.120158255 0.16407764
0.19343008 -0.031215454 -0.08374765 -0.04688012 -0.88048846 0.19583741 0.33398372 -0.02256838
-0.46862236 -0.07193414 -0.06669831 -0.27490368 0.046178427 0.023146003 -0.12196323 -0.44343877
-0.54477674 0.14264427 0.17278992 0.06671304 0.02966866 -0.32996374 -0.07287017 -0.12527695
-0.03424234 0.015811313 0.08732521 -0.06345264 0.10215228 0.1120788 -0.18204746 0.12133065
-0.024675189 0.04284987 0.26377153 -0.2239388 -0.069889955 -0.3650028 -0.1768446 -0.104238264
0.03302211 -0.5763713 -0.041406572 -0.025001561 0.037391935 -0.088442214 0.16726753 0.06364923
0.16751373 0.23330183 -0.06306351 -0.34682247 0.03377212 -0.20695698 -0.025729438 0.17151283
-0.049490727 0.0866025 -0.16942221 0.19662604 -0.03917786 -0.102912985 0.066574946 0.015434658
00000000: a82d 8cbd 29b3 f6bd d3dc 2a3e 301d 39be
00000010: 85c5 333d 8016 35bd caf7 f73c 32e0 8c3d
00000020: ad64 eabd 7f73 ddbc 9bff cb3d 5756 b2bd
00000030: 95ea 52be 6ddb 693d 69ef 443e b2f0 96bd
00000040: c75d 23be 6698 923d dc5a 7c3e 838a 35be
00000050: 4c59 563e 72ac 87bd 4d74 39be 5a94 903d
00000060: e328 c6bd c2ba db3a 9751 ae3e e230 263e
00000070: b262 46be 6ff8 213e aa8b 0e3e 63d0 debd
00000080: 4d3d a83d 869a 323e a3b6 28be 163e 983c
00000090: a29f 9abb efda 893d b406 e33c 7a9f a43c
000000a0: 9d3a 62be 3b6f 3b3e c741 353e 645b c9bc
000000b0: b8f1 9cbd 9ae0 023e c9cb d1bd dd97 80bc
000000c0: 3e99 4b3d 29c4 b73d 5575 763b a55b d93e
000000d0: 56bb 683d 3e1f 88be 376e 4dbc 5d1d b1bd
000000e0: 4b35 193e 0454 94bd 069c 7dbe baed 0e3e
000000f0: b5b6 5b3c 27a8 17be cb52 213e 7fb5 d2bd
00000100: 3895 d13c 683b 76bc 8651 853a 64da ae3c
00000110: a98a 833e 3f85 453d 5c9b a53e 10cd 843b
00000120: 4496 69bd 13c4 70bd 820a 84be 3597 0abd
00000130: ba21 a83d e3c5 1bbe 6173 683d a729 a5bc
00000140: 2a67 d4bc f4db 37be b929 35bc 09cf 0e3b
00000150: 235e bf3d 3912 583e 59ba 3abd 3c97 36be
00000160: 56d1 823d 1e91 f73c f80a 953b 315d 193e
00000170: 2ab2 06bb 2e9e 3abe 60e5 e4bc 74a8 933e
00000180: 8c44 4fbe d82d fc3d 8c6c 823f f897 163e
00000190: da76 f13d 792e de3a 6f33 eebc 250d b1be
000001a0: a216 4abe 0293 51be 997e 06be 6744 41be
000001b0: 0f68 c9bd 4896 36bd 0313 ff3d 636f 823d
000001c0: ed54 b43d c9ca c3bc 3be1 88bd 50fd 4b3d
000001d0: c429 853d 8726 8f3d ab9d d23d f995 823e
000001e0: 824a 45bd 0c08 a9bc c486 2dbd ea92 af3d
000001f0: 7e84 2c3e e656 803d 57e1 bdbd 7e97 b3bc
00000200: 0d7b c53e 0381 f6bd 8839 aebd fabd 363d
00000210: e3de 9a3d 231b 3fbe 8d25 cd3d 6e64 6cbe
00000220: 4d4b cebd 55fb bcbc ab45 97be 8d8f 983e
00000230: 1330 3b3e 423e 4ebe 30b4 523d 6793 2b3d
00000240: 632e 99bd ff25 523e 215d de3d daee 1abe
00000250: fc88 23bc 0e64 fe3c ea2a e23d f203 a23b
00000260: cebf 88bd 0931 fb3c 6aa6 32bd 734d 163e
00000270: a02a 313e 2bf0 3abd 4f8d 8a3c 3e7b 5bbe
00000280: a3cf 05be 8012 343d ce4e b0bc d049 a9bd
00000290: ee8a 003e 75b7 ae3d 9acd c63c f818 d1be
000002a0: 173e 8ebe 1eeb 75be 509d 8b3d 678f a43e
000002b0: 2b55 9c3d fac6 353e 3ebe c13b 5e11 d63d
000002c0: 8aba 80bd b4ca f13d 1c61 be3d 6268 e0bc
000002d0: 276f 2dbe 7258 483d 5ebe 76be 5daa dfbd
000002e0: 8a49 1c3e 0e35 43bd d1c9 993e 8b83 81bc
000002f0: 39b3 16bd 8b8e 7c3e 8815 f63d f803 283e
00000300: 8912 463e 8db7 ffbc e383 abbd 5e05 40bd
00000310: b167 61bf 9a89 483e eaff aa3e 53e1 b8bc
00000320: 45ef efbe 3552 93bd 2099 88bd 2dc0 8cbe
00000330: 9725 3d3d b09c bd3c dcc7 f9bd 680a e3be
00000340: 7d76 0bbf 5711 123e d7ef 303e d9a0 883d
00000350: b10b f33c 02f1 a8be f53c 95bd 9a48 00be
00000360: b241 0cbd ba86 813c 8fd7 b23d 75f3 81bd
00000370: 3735 d13d 9289 e53d a66a 3abe 347c f83d
00000380: 9f23 cabc 5883 2f3d 100d 873e 3650 65be
00000390: 7722 8fbd a6e1 babe c016 35be df7a d5bd
000003a0: 3142 073d 128d 13bf f099 29bd 13d0 ccbc
000003b0: 4928 193d 3121 b5bd 2e48 2b3e 875a 823d
000003c0: b888 2b3e ade6 6e3e 7127 81bd b792 b1be
000003d0: a254 0a3d 88ec 53be 8bc6 d2bc 0fa1 2f3e
000003e0: cab6 4abd a75c b13d 047d 2dbe 5658 493e
000003f0: f778 20bd 0bc4 d2bd 7258 883d a6e1 7c3c
